examples/chapter5/LSTM算法拓展/RNN/data/model.ckpt (torch, 514279 bytes, 7 tensors)

weight f4 [472, 40]
0	0xbf1fccae	-0.6242169
1	0x3f2e9c8a	0.6820761
2	0x3f52be1c	0.82321334
3	0xbef6de5c	-0.48216522
4	0xbf08b78b	-0.53405064
5	0xbe114682	-0.14187053
6	0xbfbe7b90	-1.4881458
7	0xbfe9f91d	-1.8279148
8	0xbfb92cf1	-1.446684
9	0x3f69e6e7	0.91367954
10	0x3fc033c5	1.5015799
11	0xbfe2ade9	-1.7709323
12	0x3ed73463	0.42032155
13	0x40026604	2.0374765
14	0x3fae8371	1.3633863
15	0xbed78692	-0.42094857
16	0xbea34e63	-0.31895742
17	0xbea57daa	-0.32322437
18	0x401f97b8	2.4936352
19	0xbf08090e	-0.53138816
20	0x3f316087	0.69287914
21	0xbf1fc100	-0.6240387
22	0x3f9897ff	1.1921386
23	0xc00ee647	-2.232805
24	0xc001e345	-2.0294964
25	0xbf5ee20b	-0.87063664
26	0x3c0b1f47	0.008491344
27	0x3f847444	1.0347981
28	0x3f11b119	0.56910855
29	0x3f80f0a3	1.0073436
30	0xc02a4e0d	-2.6610138
31	0xbf702ead	-0.9382122
32	0x3f8d69cc	1.1047912
33	0x3f769326	0.9631828
34	0xbfc2768d	-1.5192429
35	0x3de170c1	0.11007834
36	0xbe38abeb	-0.18034332
37	0x3f17d191	0.5930415
38	0xbc86dd40	-0.016462922
39	0x3fc6c801	1.5529786
40	0xbeaea65d	-0.341113
41	0x3f4e9410	0.80694675
42	0x4033810f	2.804752
43	0x3dc28973	0.094988726
44	0xc005e6df	-2.0922163
45	0xbfaad1be	-1.3345258
46	0xbfa8e2e6	-1.3194244
47	0x38c773a5	9.5106e-05
48	0xbdb489e1	-0.08815361
49	0x3fa93045	1.3217856
50	0x3fb823dd	1.4385945
51	0xbfe2906a	-1.7700322
52	0x3f31576b	0.69274014
53	0x3f604341	0.8760262
54	0x3f81b758	1.0134077
55	0x3f883a2d	1.0642754
56	0xbdd89ad8	-0.10576409
57	0xbfbb69c5	-1.4641653
58	0x3e9e2622	0.30888468
59	0x3f0cd45e	0.55011547
60	0xc028091c	-2.625556
61	0xbfc667b6	-1.55004
62	0xbf9f35de	-1.2438314
63	0xbf530070	-0.8242254
64	0x3ff9c0f6	1.9512012
65	0x40211fda	2.517569
66	0x3f30d87c	0.6908033
67	0x3f899a92	1.0750296
68	0xbfa3919c	-1.2778811
69	0x3fc789ed	1.5588967
70	0x401434f4	2.315732
71	0x3f0f9f86	0.5610279
72	0xbfceaab4	-1.6145844
73	0x402f4904	2.7388315
74	0xbfc7c158	-1.5605879
75	0xbfab3a85	-1.3377234
76	0xc00a0035	-2.1562626
77	0xbf8f7236	-1.120673
78	0x3f3e251f	0.7427539
79	0xbf8ea6b1	-1.114462
80	0xbff55aa1	-1.9168283
81	0xbd94b7e2	-0.07261635
82	0x3e58abf2	0.21159342
83	0xbe7cfdd8	-0.24706209
84	0xbf1b2230	-0.6059904
85	0x3fbc209a	1.4697449
86	0xbe416052	-0.188844
87	0x3fd35845	1.6511313
88	0x400485f8	2.0706768
89	0x403458ee	2.8179278
90	0xbfa8325d	-1.314037
91	0x3ffef92c	1.9919791
92	0xc01383e6	-2.3049254
93	0xbff77fc2	-1.9335864
94	0x3fb61c06	1.4227302
95	0x3fbc7968	1.472455
96	0x3f90c2a8	1.1309404
97	0x400500dc	2.0781775
98	0x3f426f76	0.75951326
99	0xbf550656	-0.8321279
100	0xc024d8be	-2.575729
101	0xbf885dc2	-1.0653613
102	0x3fad130e	1.352144
103	0xbfdf33ed	-1.7437721
104	0x3ff719ed	1.9304787
105	0xbe8fb880	-0.2807045
106	0x3fc240a9	1.5175983
107	0xbf38c13d	-0.7216986
108	0xbff96dc4	-1.9486623
109	0xbec48829	-0.38385132
110	0xc029b83e	-2.6518703
111	0x40097f53	2.1483963
112	0x3f254f5c	0.6457422
113	0x40098ea9	2.1493323
114	0x3e855676	0.26042527
115	0xbf3a3677	-0.72739357
116	0xbdfac6b5	-0.122449316
117	0xbfbdb3d6	-1.4820507
118	0xbd44865f	-0.04797971
119	0xbf1bb0b9	-0.6081653
120	0xbe9e82df	-0.30959222
121	0x3f290bd0	0.6603365
122	0x40466cc6	3.100389
123	0x3daa9d76	0.083308145
124	0xbfad78b3	-1.355246
125	0xbea6ed4d	-0.3260292
126	0xbf5acce5	-0.85468894
127	0x400f815e	2.242271
128	0xbeeaf2d0	-0.45888376
129	0x4017119e	2.3604503
130	0xbfb00cae	-1.375387
131	0x3f47c73b	0.78038377
132	0x3f9c36cc	1.2204223
133	0x3f4c0722	0.79698384
134	0x3f820bb6	1.0159824
135	0x3ecc7d79	0.39939478
136	0xbf9942fd	-1.1973568
137	0x3f420e7f	0.7580337
138	0x3f2df361	0.6794949
139	0xbe6da8c4	-0.2320891
140	0x3fb151cd	1.3853089
141	0xb78d0299	-1.680972e-05
142	0x3fc60e88	1.5473185
143	0xbf282f48	-0.65697145
144	0xbf916ece	-1.136194
145	0x3f6b0455	0.91803485
146	0x3ecde813	0.4021612
147	0x3f3ddede	0.74168193
148	0x3eb07541	0.34464458
149	0xbe87903a	-0.26477224
150	0x3e65f961	0.22458412
151	0x3ffc44dd	1.9708515
152	0x3f8432aa	1.0327961
153	0xbf329891	-0.6976405
154	0x3f774672	0.96591866
155	0xc009aca1	-2.1511614
156	0x3e132426	0.14369258
157	0x3f7ce875	0.987922
158	0xbf4b1fba	-0.79345286
159	0x3fc41060	1.5317497
160	0xbf00d367	-0.50322574
161	0x400b1c57	2.1736047
162	0xbff4c8c9	-1.9123775
163	0x3fef7bd7	1.8709668
164	0x3e1cc749	0.15310396
165	0xbf3db4ab	-0.741038
166	0xbed416e8	-0.41423726
167	0x3ec4594d	0.3834938
168	0x3f85a94c	1.044229
169	0x3ef46a72	0.4773746
170	0xbf5ca418	-0.8618789
171	0xbfb1b7e5	-1.3884245
172	0xc0104987	-2.2544878
173	0xbfaa734f	-1.3316439
174	0x3faf87f7	1.3713368
175	0x3f9249f2	1.1428816
176	0xc015d589	-2.3411582
177	0xbf8c0442	-1.0938799
178	0x3fcc8660	1.5978508
179	0xbf91d5b8	-1.1393347
180	0x3f5afe99	0.85544735
181	0x3f44a2bc	0.7681081
182	0xbe46509a	-0.19366685
183	0x3f9eeb9b	1.2415651
184	0x400436c2	2.0658422
185	0x3f9f6ea0	1.2455635
186	0xc030b1e4	-2.7608576
187	0x3f55344e	0.83282936
188	0xbfba5ab5	-1.4558932
189	0x400d0cb3	2.2039
190	0xc012947f	-2.2903135
191	0xbe1a9f93	-0.15099935
192	0x4016694a	2.3501763
193	0x3fb2e531	1.3976194
194	0x3f1df8ac	0.6170757
195	0xbfa42caf	-1.2826136
196	0xbf26e1fd	-0.6518858
197	0x3f5b1c9e	0.8559054
198	0x3f74d072	0.9563056
199	0x3fd94afa	1.6976006
200	0x3f3eee38	0.7458224
201	0x3dc0272e	0.09382473
202	0x3fe460d7	1.7842053
203	0x40190737	2.3910654
204	0xbfa2b62b	-1.2711843
205	0x3fcb2257	1.5869855
206	0x3e852581	0.26005176
207	0xbf8774e8	-1.0582552
208	0x3f753253	0.95779914
209	0x3fb15f60	1.3857231
210	0x3f8758eb	1.0574011
211	0x3f794d51	0.973836
212	0xbfd3acc2	-1.6537097
213	0x3f849dea	1.0360692
214	0xbf47d231	-0.780551
215	0xbec92f22	-0.39293772
216	0x3fd3d595	1.6549555
217	0x3f3b3957	0.7313437
218	0xbfba03eb	-1.4532446
219	0xbf914121	-1.1348001
220	0xbf9cfa7b	-1.226394
221	0xbf9a5b2f	-1.2059077
222	0xbf9bb8bf	-1.2165755
223	0xbf69b78d	-0.912957
224	0xbf94fa47	-1.1638879
225	0x4000f718	2.0150814
226	0xbfa0eb42	-1.2571795
227	0xbd516b4f	-0.051127728
228	0xbfb8c497	-1.4434994
229	0xbea6327f	-0.324604
230	0xbfadacbc	-1.3568339
231	0xbf1badd9	-0.60812145
232	0x3f019001	0.5061036
233	0x3fc7ea93	1.5618461
234	0xbf710b67	-0.94158024
235	0x3fe1e60f	1.7648333
236	0x40324264	2.7853022
237	0x403d4fe6	2.9580016
238	0xbf3ab999	-0.7293945
239	0xbfa1e5a9	-1.2648212
240	0x3d64b57d	0.055837143
241	0x3fb53461	1.415661
242	0xbf48e6a5	-0.78476936
243	0x3f83dff5	1.0302721
244	0xbfc297b9	-1.5202552
245	0x3ec9ebe3	0.3943778
246	0x3f77c5bf	0.9678611
247	0x400d61d4	2.209096
248	0xbea06812	-0.313294
249	0xbe0b8841	-0.13626195
250	0x3ee59b69	0.4484513
251	0xbdfa8901	-0.12233163
252	0x4028d893	2.6382186
253	0x3fc5452a	1.5411732
254	0x3f6f7bc3	0.9354822
255	0xbf0451d5	-0.51687366

weight f4 [20, 200]
0	0x3cc5d0eb	0.024147471
1	0x3de9d477	0.114174776
2	0xbe02bb83	-0.12766843
3	0xbddc5be5	-0.10759715
4	0xbe1954b2	-0.14973715
5	0xbd02b4a4	-0.031910554
6	0x3e303ac9	0.17209925
7	0x3e0913b1	0.13386418
8	0xbdca0dd5	-0.098659195
9	0x3d314629	0.0432798
10	0x3de8974c	0.113569826
11	0x3d408299	0.046999548
12	0xbdaa1961	-0.08305622
13	0xbd988fce	-0.074493036
14	0x3e9cc9d6	0.3062274
15	0x3c8319d1	0.016003521
16	0xbd397a5b	-0.045282703
17	0xbe36d59a	-0.1785492
18	0x3e1d7caa	0.15379587
19	0xbde577ee	-0.112045154
20	0x3dc8d75d	0.09806702
21	0x3c15c906	0.009142166
22	0xbbe88665	-0.007096099
23	0xbce156ae	-0.027507152
24	0x3cc4944b	0.023996493
25	0x3ca41b47	0.020032538
26	0xbe2a5e76	-0.16637596
27	0x3e6f5525	0.23372324
28	0x3dba339b	0.09091874
29	0x3d892ecf	0.06698381
30	0x3ddef9a8	0.10887462
31	0x3e124f46	0.14288053
32	0xbdf24ea2	-0.11831404
33	0xbe6bea01	-0.23038484
34	0xbdc6b729	-0.09702904
35	0xbde18d26	-0.1101325
36	0xbe4a9277	-0.19782434
37	0x3e47cac5	0.19510944
38	0xbaf39b5d	-0.001858573
39	0xbdc11a3e	-0.094288334
40	0xbd22fff7	-0.03979489
41	0x3c8ac100	0.016937733
42	0xbe2559ae	-0.16147491
43	0xbdde4c8b	-0.10854443
44	0x3e4595de	0.19295451
45	0xbe34cedb	-0.17657034
46	0x3eb1b1bd	0.34705916
47	0xbe732244	-0.2374354
48	0xbd054670	-0.032537878
49	0x3d9b3c6f	0.07579886
50	0xbc529a6d	-0.012854201
51	0x3e98cfbf	0.29845998
52	0xbd742a4a	-0.059610642
53	0x3e5ee178	0.21765697
54	0x3d143f10	0.036192954
55	0xbcdc89b6	-0.026921134
56	0x3cbb9b4a	0.022901196
57	0x3db7608e	0.08953963
58	0x3db16183	0.08661177
59	0x3ec788c6	0.38971537
60	0x3de5c962	0.11220051
61	0x3d9eaf56	0.077482864
62	0xbcdd6ee1	-0.02703041
63	0x3e23277d	0.15933032
64	0xbdeb39a2	-0.11485602
65	0x3df7a0a7	0.12091189
66	0xbe424ab0	-0.18973804
67	0x3de98274	0.11401835
68	0xbd7a507a	-0.061111905
69	0x3e6e5b14	0.23276931
70	0xbe5fb198	-0.2184509
71	0x3e19623c	0.1497888
72	0xbdfb2206	-0.12262349
73	0xbeb8b22f	-0.36073443
74	0xbd8b8435	-0.06812326
75	0x3e15d81e	0.14633223
76	0xbdcf43ee	-0.101203784
77	0x3e110b34	0.1416443
78	0x3d06e09b	0.032929044
79	0x3e9e8501	0.3096085
80	0xbe99acb4	-0.30014575
81	0xbc64594b	-0.013937305
82	0xbd813278	-0.06308454
83	0x3ca97b1a	0.020688582
84	0x3c3df12b	0.011593143
85	0xbee880ff	-0.45410916
86	0x3d277f54	0.040892914
87	0xbe26ad90	-0.16277146
88	0x3dfeb573	0.124369524
89	0x3e72eb92	0.23722675
90	0xbea075bc	-0.31339824
91	0xbde63887	-0.112412505
92	0x3cbd8dba	0.02313887
93	0x3df6bda8	0.12047893
94	0x3eaa0b03	0.33211526
95	0x3e30de08	0.17272198
96	0x3d58c169	0.052918825
97	0x3e39f9fc	0.18161768
98	0xbd067dc5	-0.032834787
99	0xbbc2cc37	-0.0059447545
100	0x3dcb415b	0.09924575
101	0x3e446cc0	0.1918211
102	0x3c28f6da	0.01031276
103	0xbe099382	-0.13435176
104	0xbe3bbac0	-0.18332958
105	0xbcc022a1	-0.023454012
106	0x3ee19fa5	0.44067112
107	0x3e69efa6	0.22845325
108	0xbcdd6160	-0.027023971
109	0xbe16e78b	-0.14736764
110	0xbe057eeb	-0.13036697
111	0xbd91b2f2	-0.07114209
112	0x3ea5a617	0.3235328
113	0xbe63a6ba	-0.2223157
114	0xbe0d7f5c	-0.13818115
115	0xbc99fabb	-0.018796315
116	0xbd8e97d3	-0.06962552
117	0xbdbbcdab	-0.091700874
118	0xbd8e3c0c	-0.06945047
119	0x3d6b67ca	0.057472028
120	0x3d571845	0.05251338
121	0xbcd2e464	-0.02574367
122	0x3b1ed9ab	0.0024238627
123	0xbe96b412	-0.29434258
124	0xbe130b42	-0.14359763
125	0xbe3ef542	-0.18648246
126	0xbeae607f	-0.34057996
127	0xbe1871f7	-0.14887224
128	0xbe9d0de5	-0.30674663
129	0xbec721dd	-0.38893023
130	0x3e849dc2	0.2590161
131	0xbeb3847a	-0.3506201
132	0xbd5c9764	-0.053855315
133	0xbc457553	-0.012051898
134	0x3cf132ab	0.029443106
135	0xbb9d1837	-0.0047941464
136	0xbe7a29bc	-0.24429983
137	0xbdc8b245	-0.09799627
138	0xbcf78799	-0.030216025
139	0x3d5c18f6	0.053734742
140	0xbb899b5d	-0.004199429
141	0x3eb465e6	0.35233992
142	0x3d04a9c5	0.032388467
143	0x3d738a08	0.05945781
144	0xb9cbc756	-0.00038867694
145	0xbe21eeea	-0.15813795
146	0x3d0be043	0.03414942
147	0x3e409ebf	0.18810557
148	0x3e00e9f9	0.12589253
149	0x3e00bfaa	0.12573114
150	0x3c78f0b5	0.015194108
151	0xbe48838a	-0.19581428
152	0xbdcdba8a	-0.10045345
153	0xbe5db9b7	-0.21652876
154	0x3da5f58e	0.081034765
155	0x3e3d8465	0.18507536
156	0x3dd0b766	0.101912305
157	0xbd253655	-0.04033502
158	0xbe37314f	-0.17889903
159	0x3d9df963	0.07713582
160	0x3eec9f1d	0.46215144
161	0xbd050a4c	-0.032480523
162	0x3daa878a	0.08326633
163	0x3dd21d8f	0.10259544
164	0xbeb63cca	-0.35593253
165	0x3e293dd1	0.16527487
166	0xbccf10e0	-0.025276601
167	0xbd27cd3d	-0.040967215
168	0xbe7f623f	-0.24939822
169	0x3d0e0718	0.034674734
170	0xbd725272	-0.059160657
171	0xbe1567e7	-0.14590417
172	0x3e2ad695	0.16683419
173	0xbf04ab10	-0.5182352
174	0xbee0a029	-0.43872193
175	0xbdfb7bb3	-0.12279453
176	0x3e193cce	0.14964601
177	0x3c3309be	0.010927616
178	0x3e042a74	0.1290682
179	0xbe1394aa	-0.1441218
180	0xbdd95548	-0.10611969
181	0xbe0a2cf9	-0.13493718
182	0x3db8ffe4	0.09033182
183	0x3cd76e94	0.026297845
184	0x3bab9210	0.005235918
185	0xbe645ac1	-0.22300245
186	0x3d92d84a	0.0717016
187	0x3d426d9c	0.047467813
188	0xbe274484	-0.1633473
189	0x3cf03b4c	0.02932515
190	0xbde48326	-0.11157827
191	0xbc4a63b5	-0.012352874
192	0x3e96f2c8	0.29482102
193	0x3dc1fbd3	0.0947186
194	0xbd935cc9	-0.07195432
195	0xbd50c4d4	-0.05096896
196	0xbdab45a4	-0.08362892
197	0xbe16067b	-0.1465091
198	0xbe8939c5	-0.26801887
199	0x3d0add00	0.03390217
200	0xbe3ff0dd	-0.18744226
201	0xbd92d1fc	-0.071689576
202	0x3db9adb2	0.09066333
203	0x3e22c180	0.15894127
204	0xbe7512e2	-0.23932984
205	0x3d71fdca	0.059079923
206	0x3dcb7e18	0.0993616
207	0x3cd81cb3	0.026380872
208	0xbc8b6616	-0.017016452
209	0xbdb37c4c	-0.08763942
210	0xbc7475b4	-0.014920641
211	0x3e017718	0.12643087
212	0xbe9b1f54	-0.3029734
213	0x3d3a2812	0.04544837
214	0x3c37076e	0.011171205
215	0x3e1eb85a	0.15500012
216	0xbe08e9d3	-0.13370447
217	0xbe41c57a	-0.18922988
218	0xbd6a6039	-0.05722067
219	0xbebb4e9c	-0.36583412
220	0xbdfdab8e	-0.12386237
221	0x3df1b138	0.1180138
222	0xbe038bdf	-0.12846325
223	0x3e6d12de	0.23151729
224	0xbe5fb241	-0.21845342
225	0xbdbd1d0a	-0.092340544
226	0x3e23eeaf	0.1600902
227	0x3e2426aa	0.16030374
228	0x3f234149	0.6377149
229	0x3c582338	0.013191991
230	0xbd552a30	-0.052042186
231	0x3ead760e	0.3387913
232	0x3d8a3fae	0.06750427
233	0x3cafb08e	0.021446493
234	0xbe43acd3	-0.19108896
235	0xbee14b63	-0.44002828
236	0xbcfb8590	-0.030703336
237	0x3dd073a8	0.1017831
238	0xbd467ad7	-0.048456993
239	0x3c04fe87	0.008117325
240	0xbd6fea43	-0.05857302
241	0x3e336750	0.1751988
242	0x3e6a7e02	0.2289963
243	0xbdda36c0	-0.10654974
244	0x3cc5d3ce	0.024148848
245	0xbed7c1b9	-0.42139986
246	0x3f2258bd	0.63416654
247	0xbdc48e3f	-0.09597444
248	0xbe2ab514	-0.16670638
249	0x3e90a5e8	0.28251576
250	0x3d5f8c48	0.054577142
251	0x3ec18b4d	0.3780159
252	0xbbf914eb	-0.0076013706
253	0xbd699fe5	-0.057037253
254	0x3d0074e5	0.03136148
255	0xbdc82b9f	-0.09773945

bias f4 [20]
0	0x3e29bc9a	0.16575852
1	0x3e6cb47f	0.23115729
2	0xbe566312	-0.2093623
3	0xbeafdbee	-0.3434748
4	0x3e5f9544	0.21834284
5	0x3e769f1f	0.24084137
6	0x3e839544	0.25699818
7	0x3d763b92	0.060115404
8	0xbe5cb686	-0.21554002
9	0x3e923d66	0.28562468
10	0x3e38df60	0.18053961
11	0x3e67455a	0.2258505
12	0xbee44e98	-0.44591212
13	0x3ea76d4e	0.3270058
14	0x3dbc8bf4	0.092063814
15	0xbeda33e3	-0.4261771
16	0xbe4ec0ae	-0.20190689
17	0x3e9b796d	0.30366078
18	0xbec6117c	-0.38685215
19	0x3eef206e	0.4670443

weight f4 [472, 20]
0	0x3e2f1036	0.17096028
1	0x3ecdd61c	0.40202415
2	0x3ef08771	0.46978334
3	0xbf06eff7	-0.5270991
4	0xbf5db643	-0.86606234
5	0x3ed1a3bd	0.40945235
6	0x3e9befbb	0.30456337
7	0xbf4af4ea	-0.7927996
8	0xbe340843	-0.17581277
9	0x3f2cddc8	0.6752591
10	0x3dff5580	0.1246748
11	0xbf2d24ac	-0.6763408
12	0xbf0bf4d8	-0.54670477
13	0x3f16b299	0.5886627
14	0xbf4e9762	-0.8069974
15	0xbf23643d	-0.63824826
16	0xbde46403	-0.11151888
17	0x3ef7697c	0.48322666
18	0xbec4ede8	-0.38462758
19	0x3f0f12be	0.55887973
20	0x3ec20d14	0.37900603
21	0xbf7cf2a9	-0.9880777
22	0xbe979d2f	-0.2961211
23	0xbda2cbe9	-0.07949049
24	0x3f14d47c	0.58136725
25	0xbf9aae1f	-1.2084388
26	0xbf24cea3	-0.643778
27	0xbf583185	-0.8445056
28	0xbf0abc8f	-0.5419397
29	0xbce96c54	-0.028494038
30	0xbf74627a	-0.95462763
31	0xbf787560	-0.970541
32	0xbf437f38	-0.76365995
33	0xbfa76ee5	-1.3080717
34	0xbf80e3d4	-1.0069528
35	0x3fd793c2	1.6841967
36	0xbec8bd49	-0.39206913
37	0xbfb32193	-1.3994621
38	0xbdb8cd5f	-0.090235464
39	0xbf4098d1	-0.7523318
40	0xbfa23761	-1.267315
41	0xbf805bf7	-1.0028065
42	0x3e00d304	0.12580496
43	0xbf2a3f8e	-0.66503227
44	0xbe408181	-0.18799402
45	0xbf801b48	-1.0008326
46	0xbfa6bc1b	-1.3026155
47	0x3f48daf5	0.784591
48	0xbef3c4d1	-0.47611097
49	0x3f97b4ea	1.1852086
50	0xbf4d58cd	-0.80213624
51	0xbf0e98c4	-0.5570185
52	0xbe4588f9	-0.19290532
53	0x3f2ab04b	0.6667525
54	0x3ef4112e	0.47669357
55	0xbf603ed6	-0.8759588
56	0x3c0ada94	0.008474965
57	0xbf84a0c7	-1.0361565
58	0x3fb9c980	1.4514618
59	0xbf2dcf20	-0.6789417
60	0x3e8801f3	0.26563987
61	0xbf178b79	-0.59197193
62	0xbd12c18f	-0.035829123
63	0xbf0364fa	-0.51325953
64	0xbf6fa82f	-0.93616
65	0x3edc204b	0.42993388
66	0x3f0aa885	0.5416339
67	0xbf05b018	-0.5222182
68	0xbf01718e	-0.50563896
69	0xbf27defb	-0.65574616
70	0xbfaa0a75	-1.3284441
71	0xbf424f41	-0.7590218
72	0x3fb49681	1.410843
73	0xbf4d7772	-0.80260384
74	0x3f5c1ae5	0.8597854
75	0xbef98b6e	-0.4873919
76	0xbf0e6491	-0.556222
77	0xbfbee886	-1.491471
78	0x3e96eb60	0.29476452
79	0xbf861d1a	-1.0477631
80	0xbd6b6930	-0.05747336
81	0xbf9dcf50	-1.2328892
82	0xbf7792e6	-0.96708524
83	0xbebb9085	-0.36633697
84	0x3ee19e83	0.44066247
85	0x3f00e75e	0.5035304
86	0x3ec7324c	0.3890556
87	0x3f0079a0	0.50185585
88	0x3fdfefed	1.7495095
89	0xbfc07014	-1.5034204
90	0x3f34274c	0.7037246
91	0xbf10c4ff	-0.5655059
92	0xbf3745b1	-0.71590716
93	0xbef7395b	-0.48285946
94	0x3f1b905c	0.6076715
95	0xbf44c29c	-0.7685945
96	0x3f032ad8	0.5123725
97	0x3f6d5540	0.92708206
98	0x3e0b293e	0.13589951
99	0x3ed429cf	0.41438147
100	0xbf072f7f	-0.5280685
101	0xbf8a7234	-1.0816102
102	0xbf08edf4	-0.5348809
103	0x3f531c6a	0.8246523
104	0xbeff50f7	-0.4986646
105	0x3e36317b	0.17792313
106	0x3efba9c0	0.49152946
107	0x3f4f7ab8	0.8104663
108	0xbef64977	-0.48102924
109	0xbf89eab8	-1.0774755
110	0x3f2dad8c	0.67842937
111	0x3f7d19e7	0.9886765
112	0x3f9aa464	1.2081418
113	0x3f2cfb95	0.67571384
114	0x3e978da3	0.29600248
115	0xbeba71e3	-0.36415014
116	0xbf02d10e	-0.5110024
117	0x3f37cba7	0.71795124
118	0x3e0831c3	0.13300233
119	0xbf81387a	-1.009536
120	0xbfafae3f	-1.3725051
121	0x3f2e8535	0.6817201
122	0x3d9e1075	0.07717983
123	0xbee9cec3	-0.4566556
124	0x3e02e8a3	0.12784056
125	0x3d0c266b	0.034216326
126	0x3eaceb6f	0.33773372
127	0x3f76a73b	0.96348923
128	0x3ee94e51	0.45567563
129	0x3f8ff3bd	1.1246258
130	0xbf924afe	-1.1429136
131	0xbf8a28dc	-1.0793719
132	0xbf006857	-0.5015921
133	0xbfe27f28	-1.7695055
134	0xbed7d42c	-0.42154062
135	0xbf143d48	-0.5790601
136	0xbe55c3bd	-0.2087545
137	0x3d63d3d2	0.05562193
138	0xbedcc05e	-0.43115515
139	0x3f3b9f45	0.732899
140	0xbef6ebee	-0.48226875
141	0xbe850545	-0.25980583
142	0xbf25be0b	-0.6474311
143	0x3f477948	0.77919436
144	0xbf6152eb	-0.8801715
145	0x3eeb6c54	0.45981085
146	0xbf6defad	-0.9294384
147	0x3e6cf5e2	0.23140672
148	0x3f32d5d3	0.6985752
149	0x3ed80daf	0.4219794
150	0x3db64850	0.08900511
151	0x3f12b461	0.57306486
152	0xbec08a46	-0.37605494
153	0xbe7be397	-0.24598537
154	0xbd80f10d	-0.06295977
155	0x3f1249b9	0.5714374
156	0x3f43548d	0.7630089
157	0xbf463f21	-0.7744008
158	0xbdd8420a	-0.10559471
159	0xbed6b3a6	-0.41933936
160	0xbecf1b3d	-0.4045047
161	0xbf26833d	-0.65044004
162	0x3f113d0e	0.5673379
163	0x3e3bece6	0.18352088
164	0x3f15890c	0.5841224
165	0xbf235ca7	-0.6381325
166	0xbf6de8fb	-0.92933625
167	0xbf910cd1	-1.1332036
168	0x3d53f727	0.051749375
169	0xbf3bcefd	-0.73362714
170	0x3ef85a30	0.48506308
171	0x3e9cca89	0.30623272
172	0x3f8fc198	1.1230955
173	0x3f2c8541	0.6739083
174	0x3ec94235	0.39308324
175	0xbebc59c7	-0.36787245
176	0x3f0989a5	0.53725654
177	0xbee4938b	-0.44643816
178	0xbedd9566	-0.43278044
179	0xbe196613	-0.14980344
180	0xbf93edc4	-1.1556935
181	0xbd877089	-0.06613261
182	0xbec9f098	-0.3944137
183	0x3f91a2db	1.1377825
184	0x3e797200	0.24359894
185	0xbf314821	-0.69250685
186	0x3db7054d	0.08936558
187	0x3e8c16c0	0.27361107
188	0xbe8127e8	-0.2522576
189	0xbf0a570e	-0.54039085
190	0xbfadc239	-1.3574897
191	0xbeacadef	-0.3372645
192	0x3f8e0dea	1.1097996
193	0x3f1137c0	0.5672569
194	0x3f0be6b6	0.5464891
195	0x3f5d497f	0.8644027
196	0xbeb2b689	-0.34904888
197	0xbf327d93	-0.6972286
198	0xbf1a3eaf	-0.602519
199	0x3e2dd887	0.1697713
200	0xbbcd6242	-0.0062678168
201	0xbf16de76	-0.589332
202	0x3ee42271	0.44557527
203	0xbeb4936d	-0.35268727
204	0xbf06e8c5	-0.5269893
205	0xbedaaff0	-0.42712355
206	0x3f1b3ed5	0.6064275
207	0x3ed19c11	0.40939382
208	0x3f21862b	0.6309535
209	0xbf404222	-0.7510091
210	0xbea1fef4	-0.31639826
211	0xbed9c41b	-0.4253243
212	0x3f57485e	0.840948
213	0x3ea658f3	0.32489738
214	0xbf7ce274	-0.9878304
215	0x3f8daffc	1.1069331
216	0xbeccc9e6	-0.39997786
217	0x3edbdc2d	0.42941418
218	0x3f1f6fa4	0.62279725
219	0xbe05151e	-0.12996337
220	0x3eb8b9a6	0.3607914
221	0xbe283c46	-0.16429242
222	0x3dbf226a	0.09332736
223	0x3f7bf8a0	0.98426247
224	0xbd887190	-0.06662285
225	0xbf6c39f2	-0.9227592
226	0xbf71220f	-0.94192594
227	0x3eece0dc	0.46265304
228	0xbedcacaf	-0.43100497
229	0x3da175b1	0.07883776
230	0xbe8bc3bf	-0.2729778
231	0x3e51fa54	0.20505649
232	0x3f170212	0.58987534
233	0x3e6305fc	0.22170252
234	0x3f1e2ab0	0.61783886
235	0x3f82f658	1.0231428
236	0xbd53f836	-0.051750384
237	0x3f208056	0.62695825
238	0x3f3d6262	0.73978245
239	0x3f1b3a89	0.6063619
240	0x3d9cbf7f	0.076537125
241	0xbd38afc7	-0.04508951
242	0x3f1f0cf2	0.6212913
243	0x3dd09d0d	0.10186205
244	0xbf05add2	-0.52218354
245	0xbe44661b	-0.19179575
246	0x3e789cad	0.24278517
247	0x3f4b0f67	0.7932038
248	0x3f9e521e	1.236881
249	0xbf1ff86a	-0.62488425
250	0xbf35fb1f	-0.71086305
251	0xbf05247d	-0.520088
252	0xbea1d5dd	-0.31608477
253	0x3eae37fe	0.34027094
254	0x3efc77e2	0.49310213
255	0x3f36e634	0.7144501

bias f4 [472]
0	0x3eae3068	0.34021306
1	0xbe834974	-0.25641978
2	0xbdf6d1e3	-0.120517515
3	0xbda7a310	-0.081853986
4	0xbe4a36fc	-0.19747537
5	0xbeb8b30f	-0.3607411
6	0xbea63a53	-0.32466373
7	0xbd253177	-0.040330376
8	0xbd5cd414	-0.05391319
9	0xbd026f2f	-0.031844314
10	0xbdf43b51	-0.11925376
11	0xbe896c5d	-0.26840487
12	0xbe733072	-0.23748949
13	0xbed8d951	-0.423533
14	0xbe0915b9	-0.13387193
15	0xbd3d57d6	-0.046226345
16	0xbed0c67b	-0.4077643
17	0xbe90c380	-0.28274155
18	0xbdd62c8c	-0.104577154
19	0xbebb58d9	-0.36591223
20	0xbea858b9	-0.3288019
21	0xbe4a4c3c	-0.19755644
22	0xbe8604f5	-0.26175657
23	0xbe17c2a9	-0.1482035
24	0xbe61f960	-0.22067785
25	0xbf0d2b2b	-0.55143994
26	0xbee45341	-0.44594768
27	0xbe9ad13d	-0.3023776
28	0xbe606884	-0.2191487
29	0xbbb7f58e	-0.005613989
30	0xbba90740	-0.005158335
31	0xbdd667d9	-0.10469026
32	0x3ca083a0	0.019594014
33	0xbe9ba61f	-0.30400178
34	0x3c17179b	0.009221937
35	0xbe2a880a	-0.16653457
36	0xbde23517	-0.11045282
37	0xbe29a180	-0.16565514
38	0xbe4196ae	-0.18905136
39	0xbf0b36ed	-0.54380685
40	0xbf165e6a	-0.58737814
41	0xbe58e7c9	-0.21182169
42	0xbe58434f	-0.21119426
43	0xbe0293ed	-0.12751742
44	0xbe816eb8	-0.25279784
45	0xbe3de4cd	-0.18544312
46	0xbde2fcd9	-0.11083383
47	0xbe715b51	-0.2356999
48	0xbe9a96a1	-0.30193046
49	0xbe87f637	-0.26555035
50	0xbe64ed33	-0.2235611
51	0x3cf6376c	0.030055724
52	0xbeb0ca44	-0.34529316
53	0xbeafaec7	-0.34313032
54	0xbe8feace	-0.2810883
55	0xbcf04d5a	-0.02933376
56	0xbe852abc	-0.26009166
57	0xbc34777e	-0.011014817
58	0xbef0aed4	-0.47008383
59	0xbeacfd37	-0.33786938
60	0xbecb2c01	-0.3968201
61	0xbe9c0a6e	-0.30476707
62	0xbe663e93	-0.22484808
63	0xbeb55f06	-0.3542406
64	0xbed9c7fb	-0.42535385
65	0xbe3410a1	-0.17584468
66	0xbe6a00b3	-0.22851829
67	0xbe49aab9	-0.19694032
68	0xbedd8ef3	-0.43273124
69	0xbeaaf2ad	-0.33388272
70	0xbed1ba84	-0.40962613
71	0xbd18843d	-0.037235487
72	0xbe8f17cc	-0.27947843
73	0xbea679ee	-0.325149
74	0xbdcd6d52	-0.10030617
75	0xbe9fc4e2	-0.31204897
76	0xbd313eb9	-0.043272708
77	0xbe373d25	-0.17894419
78	0xbeb8d25c	-0.3609799
79	0xbccdcc86	-0.025121938
80	0xbdab8e74	-0.0837678
81	0xbefaa340	-0.48952675
82	0xbf1800d8	-0.5937629
83	0xbe97e7cd	-0.29669037
84	0xbf01984e	-0.50623024
85	0xbd94147b	-0.07230469
86	0xbf2440da	-0.64161456
87	0xbd4f4e8e	-0.050612025
88	0xbed0707c	-0.4071082
89	0xbc3fbd73	-0.011702883
90	0xbe60d155	-0.21954854
91	0xbf05ff3d	-0.5234259
92	0xbe5ad7f4	-0.21371442
93	0xbe73709a	-0.23773423
94	0xbecdb77b	-0.40179047
95	0xbee4131b	-0.44545826
96	0xbe8b94ee	-0.27262062
97	0xbe9bf352	-0.30459076
98	0xbe635df5	-0.2220381
99	0xbdc78bdc	-0.09743473
100	0xbefec7d5	-0.49761835
101	0xbec63b5a	-0.38717157
102	0xbe69cb54	-0.2283147
103	0xbdd61401	-0.10453034
104	0xbd24a85c	-0.040199623
105	0xbe288e5a	-0.16460553
106	0xbd20cd4a	-0.03925828
107	0xbe200b2c	-0.15629262
108	0xbdf18f89	-0.11794955
109	0xbe1bdf96	-0.1522201
110	0xbe9d70c7	-0.30750105
111	0xbec2954d	-0.38004532
112	0xbe1ef052	-0.15521362
113	0xbee5427b	-0.44777283
114	0xbef33913	-0.47504482
115	0xbd964417	-0.07337206
116	0xbe0cbb91	-0.13743426
117	0xbee3f253	-0.44520816
118	0xbd6d37a5	-0.057914395
119	0xbf0c6be6	-0.5485214
120	0xbebff44c	-0.3749107
121	0xbec78064	-0.38965142
122	0xbda2cdbe	-0.079493985
123	0xbe350836	-0.17678913
124	0xbcb603e1	-0.022218646
125	0xbd2a430a	-0.04156784
126	0xbe9c31b1	-0.30506662
127	0xbe290bfb	-0.16508476
128	0xbea3c04e	-0.31982654
129	0xbe7fcdc8	-0.24980843
130	0xbe91650b	-0.28397402
131	0xbe5005ce	-0.20314714
132	0xbe9d6f45	-0.30748954
133	0xbe0e5ff3	-0.13903789
134	0xbe962926	-0.2932827
135	0xbc432f8c	-0.0119131915
136	0xbcdbff26	-0.026855063
137	0xbe1cdac1	-0.15317823
138	0xbef43014	-0.4769293
139	0xbebc703a	-0.36804372
140	0xbea5a956	-0.32355756
141	0xbc45db37	-0.012076191
142	0xbebfec93	-0.3748518
143	0x3c2a9e26	0.010413682
144	0xbea64200	-0.3247223
145	0x3c8035b7	0.015650613
146	0xbda1218f	-0.07867729
147	0xbf0351ac	-0.51296496
148	0xbe70ca3e	-0.2351465
149	0xbdaef1ef	-0.08542239
150	0xbdfec795	-0.12440411
151	0xbe9de0bb	-0.30835518
152	0xbdb4078b	-0.08790501
153	0xbea2057a	-0.31644803
154	0xbe25bf57	-0.16186272
155	0xbeb7f4e5	-0.35929027
156	0xbe9b0f6d	-0.30285206
157	0xbe430a1c	-0.19046825
158	0xbb85f410	-0.0040879324
159	0xbda043a3	-0.07825401
160	0xbdbb255b	-0.09137984
161	0xbe758880	-0.23977852
162	0xbe3e5a6b	-0.18589179
163	0xbe9ee41d	-0.31033412
164	0xbe9bfcf1	-0.30466416
165	0x3d72234b	0.05911569
166	0xbe276ee2	-0.16350892
167	0xbe8ed1cd	-0.2789444
168	0xbef905c6	-0.48637217
169	0xbdbee9d9	-0.09321947
170	0x3d5a55b5	0.053304393
171	0xbe0ff60f	-0.14058708
172	0xbe7f10d1	-0.24908759
173	0xbe8e339a	-0.27773744
174	0xbe60a6ea	-0.21938673
175	0xbe29ec50	-0.16594052
176	0xbe84d781	-0.25945666
177	0xbda3a793	-0.079909466
178	0xbe827b06	-0.25484484
179	0xbe06c6a1	-0.13161708
180	0xbd03d196	-0.0321823
181	0xbec012b6	-0.37514275
182	0xbe20320c	-0.15644091
183	0xbea2b049	-0.3177512
184	0xbe8c35a7	-0.27384683
185	0xbd450ece	-0.048109822
186	0xbea99a5d	-0.33125582
187	0x3d095ecf	0.033537682
188	0xbe7afdc0	-0.2451086
189	0xbec2c465	-0.38040462
190	0x3cd4e086	0.025985967
191	0xbe8f65de	-0.28007406
192	0xbef38d3e	-0.47568697
193	0xbd850424	-0.064949304
194	0xbef22f5f	-0.47301766
195	0xbe63d907	-0.22250758
196	0xbea0b0fc	-0.31385028
197	0xbeb4e748	-0.35332704
198	0xbdfeded4	-0.12444845
199	0xbc65811d	-0.014007834
200	0xbd6aabcc	-0.057292745
201	0xbe84bbea	-0.25924617
202	0xbead137d	-0.3380393
203	0xbde48766	-0.11158638
204	0xbdba4fe4	-0.09097269
205	0xbec2a105	-0.38013473
206	0x3c2a16d6	0.010381421
207	0xbe25e957	-0.16202293
208	0xbea80571	-0.3281665
209	0xbf0a2769	-0.53966385
210	0xbef14147	-0.47120115
211	0xbe4cbfe7	-0.1999508
212	0xbe9f7d7f	-0.31150433
213	0xbeacb9c6	-0.33735484
214	0xbcc2dbb1	-0.023786398
215	0xbe80b171	-0.25135377
216	0xbdd25165	-0.10269431
217	0xbd28e7a7	-0.041236546
218	0xbea4ce13	-0.32188472
219	0xbd516a5e	-0.05112683
220	0xbe61a228	-0.22034514
221	0xbe2a10e4	-0.16608006
222	0xbcc608ae	-0.02417406
223	0xbddea463	-0.10871198
224	0xbeff992e	-0.49921554
225	0xbe9276c0	-0.28606224
226	0xbe6019f9	-0.21884908
227	0xbe10c813	-0.14138822
228	0x3b599c19	0.0033204614
229	0xbd0ba1c4	-0.03408982
230	0xbeb9e7a3	-0.36309537
231	0xbe5ec854	-0.21756107
232	0xbcbf6bff	-0.023366926
233	0xbd987e7e	-0.074460015
234	0xbe99015a	-0.29883844
235	0xbd49111f	-0.049088594
236	0xbe90f95d	-0.2831525
237	0xbe946933	-0.2898651
238	0xbd5acb55	-0.05341657
239	0x3d3fcead	0.04682796
240	0xbdbce64f	-0.092236154
241	0xbedd0dcb	-0.43174586
242	0xbda4c806	-0.08045964
243	0xbe960148	-0.29297853
244	0xbe3aaac4	-0.18229204
245	0x3caa6ad1	0.020802887
246	0xbe74ea62	-0.23917535
247	0xbcda6277	-0.02665828
248	0xbea09459	-0.3136318
249	0xbeaf9e86	-0.3430063
250	0xbc8263b6	-0.015916687
251	0xbe2ae5bd	-0.166892
252	0xbe0a226f	-0.13489698
253	0xbeab4eda	-0.33458596
254	0xbe7a0e31	-0.24419476
255	0xbe59a8d0	-0.21255803

weight f4 [472, 200]
0	0xbe186328	-0.14881575
1	0x3e198710	0.14992929
2	0xbba41fd4	-0.005008677
3	0x3e75ea2f	0.24015115
4	0xbdbf8100	-0.09350777
5	0xbe90ef5b	-0.28307614
6	0x3dd80d12	0.10549368
7	0x3db3d8ad	0.08781562
8	0xbdabce39	-0.08388943
9	0xbb544238	-0.0032388102
10	0xbdc7c6a1	-0.09754682
11	0xbe010c97	-0.12602459
12	0xbbf7c7b4	-0.0075616483
13	0x3e71bb63	0.23606639
14	0x3db44037	0.088013105
15	0xbd2328f9	-0.039833996
16	0xbe152965	-0.14566572
17	0xbe32ec02	-0.17472842
18	0x3e59a391	0.21253802
19	0xbe138a53	-0.14408235
20	0xbe27518e	-0.16339704
21	0xbc987820	-0.018611968
22	0x3e347a32	0.17624739
23	0xbe60ce7d	-0.21953769
24	0x3dd1455a	0.10218306
25	0x3db75e70	0.089535594
26	0x3d81fa14	0.06346527
27	0xbd5888d4	-0.052864864
28	0xbd6a6028	-0.057220608
29	0x3dfd94c2	0.12381889
30	0x3d679074	0.056534246
31	0x3e59af46	0.21258268
32	0xbe19ad17	-0.15007435
33	0x3d12aceb	0.03580944
34	0x3c3304ad	0.010926408
35	0x3c84e4fb	0.016222468
36	0x3d74d3d0	0.059772313
37	0x3ea98d42	0.33115584
38	0x3c9ce954	0.019154228
39	0x3e49a46a	0.19691625
40	0x3ee2c9dd	0.44294634
41	0x3e49555b	0.19661467
42	0xbda54989	-0.08070666
43	0xbedb7724	-0.42864335
44	0xbd161e91	-0.036650244
45	0xbe94e8f6	-0.29083985
46	0x3e3bd861	0.18344261
47	0xbe207f50	-0.15673566
48	0xbdbd0ee1	-0.092313536
49	0x3dea47e2	0.11439492
50	0x3c6b51ae	0.014362736
51	0x3e2195d6	0.15779814
52	0xbe49e6cd	-0.1971695
53	0xbea53c5e	-0.3227262
54	0xbe830036	-0.25586098
55	0x3cce5f81	0.025192024
56	0xbea2c700	-0.3179245
57	0x3dcb2d6b	0.09920772
58	0x3e37d3ad	0.17951842
59	0x3bff04c1	0.007782549
60	0xbe799468	-0.24373019
61	0x3d022245	0.031770963
62	0x3dd197c4	0.10234025
63	0x3b7355f4	0.003713009
64	0x3e59699a	0.2123169
65	0x3e640de4	0.22270924
66	0x3e012951	0.12613417
67	0x3e0b8586	0.13625154
68	0x3e82e518	0.2556541
69	0x3dc4aaf7	0.096029215
70	0x3e11aec8	0.1422683
71	0x3ea9ec17	0.33187935
72	0x3e4cc082	0.19995311
73	0x3eae9729	0.340997
74	0xbe31221b	-0.17298166
75	0xbe0e4731	-0.13894345
76	0xbda4cfe1	-0.08047462
77	0x3e1056c5	0.140956
78	0x3d3d1565	0.04616298
79	0xbe905617	-0.2819068
80	0xbe40c15e	-0.18823764
81	0x3dccfc53	0.100090645
82	0xbe0a1296	-0.13483652
83	0x3d4352f4	0.047686532
84	0xbe61c248	-0.22046769
85	0xbdd388b3	-0.10328808
86	0xbe1abf12	-0.1511195
87	0xbda96700	-0.08271599
88	0x3eaac89a	0.33356172
89	0xbe4d10d4	-0.2002595
90	0x3e686411	0.22694422
91	0x3eb189c5	0.34675422
92	0xbd97a218	-0.07403964
93	0xbbe0ef23	-0.006864445
94	0x3e5fb4ee	0.21846363
95	0x3e8b4270	0.27199125
96	0xbda4f3ae	-0.08054291
97	0x3df99ed1	0.12188495
98	0xbd028a42	-0.031870134
99	0xbe2483d2	-0.1606591
100	0xbe015622	-0.12630513
101	0xbe983910	-0.29731035
102	0xbd545ddb	-0.05184732
103	0xbe977638	-0.2958238
104	0xbe04cd9c	-0.12969059
105	0x3e105bd8	0.14097536
106	0xbdbceb08	-0.09224516
107	0xbe9b294e	-0.3030495
108	0x3bff05e9	0.007782687
109	0xbde336bf	-0.11094426
110	0x3e9f355f	0.31095406
111	0xbe8f3c1f	-0.27975556
112	0xbe4902e7	-0.19630013
113	0xbe6459b0	-0.22299838
114	0xbd88a848	-0.06672722
115	0x3e429ce3	0.1900516
116	0x3e1bd897	0.15219341
117	0x3bd4e7a5	0.0064973407
118	0x3ca8a9c3	0.020588761
119	0xbe08aec4	-0.13347918
120	0xbe7442b7	-0.23853575
121	0xbcbc5172	-0.022988055
122	0x3e1a8ca6	0.15092716
123	0x3e9ccfe3	0.30627355
124	0xbe9a609e	-0.30151838
125	0xbea52444	-0.3225423
126	0x3e84e81d	0.25958338
127	0x3e6dc761	0.23220588
128	0xbe2730a9	-0.16327156
129	0x3e63c055	0.22241338
130	0xbd9f5a75	-0.07780925
131	0x3e434315	0.19068559
132	0x3c92d762	0.017924968
133	0xbd91de73	-0.07122507
134	0x3cbf20ea	0.023331124
135	0x3e6f8779	0.23391522
136	0xbd5f004d	-0.054443646
137	0xbedde438	-0.4333818
138	0xbe3e3fd4	-0.18579036
139	0xbe9bf018	-0.30456614
140	0x3e3ac230	0.18238139
141	0x3e2c4d50	0.16826367
142	0x3d2350ab	0.039871853
143	0x3e116af6	0.14200959
144	0x3e3a9e35	0.18224414
145	0xbeab1cf0	-0.33420515
146	0xbd2c7365	-0.042102236
147	0xbefe54ab	-0.49673972
148	0x3db7c64f	0.08973371
149	0x3e53c33c	0.20679945
150	0x3d0791bc	0.033097968
151	0xbecd9b18	-0.4015739
152	0xbe9b7109	-0.30359676
153	0xbe6295b0	-0.22127414
154	0x3dbd3c58	0.09240025
155	0xbdbdab4f	-0.0926119
156	0x3e8d32cf	0.27577826
157	0x3e851dec	0.2599939
158	0xbd46e19c	-0.048555
159	0x3d705aa7	0.058680203
160	0xbe849051	-0.25891355
161	0x3e18d041	0.14923193
162	0x3e677275	0.22602256
163	0x3d3c9abe	0.04604601
164	0xbe8eb7de	-0.27874655
165	0xbd40bda8	-0.04705587
166	0xbe35080f	-0.17678855
167	0xbe447e86	-0.1918889
168	0xbd981bfd	-0.07427213
169	0xbe498d14	-0.19682723
170	0x3c2e7ffb	0.01065063
171	0x3e37b56c	0.179403
172	0x3eaa0372	0.33205754
173	0xbe9be063	-0.3044463
174	0x3d7dc658	0.061956733
175	0x3d95f957	0.073229484
176	0x3dc4e46e	0.09613882
177	0xbe12f165	-0.14349897
178	0x3e195795	0.14974816
179	0xbdffc6eb	-0.124891125
180	0xbe714e05	-0.23564918
181	0x3d4d2077	0.05007979
182	0xbe143f79	-0.14477338
183	0xbdc63d51	-0.09679664
184	0x3ea29890	0.3175702
185	0x3c89bbc6	0.01681317
186	0x3e928e42	0.2862416
187	0xbe782bc1	-0.24235441
188	0xbe25807c	-0.16162294
189	0xbe7cb432	-0.24678114
190	0x3d7d2655	0.061804134
191	0x3da9ca82	0.082905784
192	0x3e5b2c5b	0.21403639
193	0x3e5403f9	0.2070464
194	0x3e8ee2b0	0.27907324
195	0xbbde6f57	-0.006788175
196	0xbbfc2abc	-0.007695524
197	0x3c6de7ce	0.014520599
198	0x3e0e95fb	0.139244
199	0xbe9ccf54	-0.3062693
200	0xbd07fcde	-0.033200137
201	0x3e6460c0	0.22302532
202	0xbe8686a4	-0.26274598
203	0xbd8091af	-0.06277787
204	0xbecdd85e	-0.40204138
205	0xbd1707ba	-0.036872603
206	0x3f4d7cd2	0.80268586
207	0xbec8e99a	-0.39240724
208	0xbeaa3c31	-0.33249047
209	0x3daa5f4f	0.0831896
210	0x3d7c2085	0.06155445
211	0x3d8b5e81	0.068051346
212	0xbed88ed0	-0.42296457
213	0x3ef251c2	0.47328
214	0x3e5b59e8	0.21421015
215	0xbdeab25e	-0.11459802
216	0x3d22b195	0.039720137
217	0x3ef446e3	0.47710332
218	0x3e8c6004	0.27417004
219	0xbd49f9e4	-0.04931058
220	0x3cbcaeae	0.023032513
221	0xbe8b9c71	-0.27267793
222	0xbf6c674f	-0.92345136
223	0x3deb4374	0.11487475
224	0x3e139fa6	0.1441637
225	0x3ca57553	0.020197546
226	0xbe5cc8ae	-0.21560928
227	0xbd76a507	-0.060215976
228	0xbe0bd225	-0.13654383
229	0xbe6808d5	-0.22659619
230	0xbe9b532d	-0.30336896
231	0x3ea8edf6	0.3299405
232	0xbe0ef5a6	-0.13960895
233	0x3eea348c	0.45743215
234	0xbdcd4fa9	-0.100249596
235	0x3da4e71b	0.08051892
236	0xbd28b2e0	-0.041186213
237	0x3e6c6037	0.23083578
238	0x3f45b450	0.7722826
239	0xbef4d75a	-0.4782055
240	0x3d27cdd4	0.040967777
241	0x3e0ae812	0.1356509
242	0x3e6fed64	0.23430401
243	0x3cba2d63	0.02272672
244	0x3dc3d3e6	0.09561901
245	0xbeb313e1	-0.34976104
246	0xbe573d75	-0.21019538
247	0x3ee2ff70	0.44335508
248	0xbed80ac9	-0.42195728
249	0xbd4e5999	-0.050378416
250	0x3f0c3e40	0.54782486
251	0xbec67f1d	-0.38768855
252	0x3eaa07ae	0.33208984
253	0x3e12ca14	0.14334899
254	0x3c0554f5	0.008137931
255	0xbf2e0f02	-0.6799165

bias f4 [472]
0	0x3e3349e7	0.1750866
1	0xbea0af18	-0.31383586
2	0xbe6bab73	-0.23014621
3	0xbde7f450	-0.11325896
4	0xbec3037c	-0.38088596
5	0xbe78040c	-0.24220294
6	0xbe7da5c7	-0.2477027
7	0xbe85be2f	-0.2612166
8	0xbe66004b	-0.2246105
9	0xbe470cba	-0.19438449
10	0xbe4c1c87	-0.19932757
11	0xbea1df87	-0.3161585
12	0xbe9ff4d5	-0.3124148
13	0xbe8e2f07	-0.27770254
14	0xbe772173	-0.24133854
15	0xbe47e191	-0.1951964
16	0xbe31a1df	-0.17346905
17	0xbdb439fc	-0.08800122
18	0xbeb04a4b	-0.3443168
19	0xbe914836	-0.28375405
20	0xbe97cb76	-0.29647416
21	0xbe6c642c	-0.23085088
22	0xbece2dc8	-0.40269303
23	0xbe5151e8	-0.20441401
24	0xbe505e44	-0.2034846
25	0xbeaf63ca	-0.3425582
26	0xbe5fbde1	-0.21849777
27	0xbe37a515	-0.17934068
28	0xbeaa99c2	-0.33320433
29	0xbe6a30c0	-0.22870159
30	0xbd92ee4f	-0.0717436
31	0x3dd2b3a3	0.10288169
32	0xbe409399	-0.18806304
33	0xbe9c6b61	-0.30550674
34	0xbe13b72d	-0.14425345
35	0xbd4a0a3f	-0.049326178
36	0xbdf93acf	-0.1216942
37	0xbdfc91eb	-0.12332519
38	0xbe948108	-0.29004693
39	0xbeed2d27	-0.4632351
40	0xbee1b50e	-0.44083446
41	0xbef6f964	-0.48237145
42	0xbe97c751	-0.29644254
43	0xbdb14fa8	-0.08657771
44	0xbe26d5c7	-0.16292487
45	0xbe549ea5	-0.20763643
46	0xbe6bf959	-0.23044337
47	0xbe0da337	-0.13831793
48	0xbe6e1ed1	-0.23253943
49	0xbe7e3181	-0.24823572
50	0xbe809023	-0.25109968
51	0x3d5d321e	0.054002874
52	0xbeaf2323	-0.34206495
53	0xbe8d203e	-0.2756366
54	0xbe59ed47	-0.2128192
55	0xbe713a05	-0.23557289
56	0xbea36cca	-0.31918937
57	0xbe8df6b4	-0.27727282
58	0xbe9a8eaf	-0.30186984
59	0xbe5c2fd0	-0.21502614
60	0xbe4a7510	-0.19771218
61	0xbeb49660	-0.35270977
62	0xbdde55ee	-0.108562335
63	0xbda41c04	-0.08013156
64	0xbea7011d	-0.32618037
65	0x3c43436b	0.011917929
66	0xbe824ad1	-0.25447705
67	0xbed1ac15	-0.409516
68	0xbebc855e	-0.368205
69	0xbe0d7e83	-0.13817792
70	0xbecbc730	-0.39800406
71	0xbe61fae5	-0.22068365
72	0xbdba240b	-0.09088906
73	0xbe0c6937	-0.13712011
74	0xbdd0ab87	-0.10188966
75	0xbe12056f	-0.14259885
76	0xbd788163	-0.060670268
77	0xbecf5ac3	-0.40498933
78	0xbeb61924	-0.35566056
79	0xbe576c36	-0.21037373
80	0xbdc4dbcf	-0.09612238
81	0xbecd7605	-0.40129104
82	0xbf07017e	-0.5273665
83	0xbe55ae68	-0.20867312
84	0xbe904c30	-0.28183126
85	0xbea43a51	-0.32075742
86	0xbed30a69	-0.4121888
87	0xbe8a8deb	-0.270614
88	0xbe5451bc	-0.20734304
89	0xbe5f7dea	-0.21825376
90	0xbead3e67	-0.33836672
91	0xbebe4d86	-0.3716852
92	0xbe9573b1	-0.29189828
93	0xbe601be1	-0.21885635
94	0xbeb0a37d	-0.34499732
95	0xbe9a9a57	-0.30195877
96	0xbd7d65bc	-0.0618646
97	0xbe68c750	-0.22732282
98	0xbe3fbcfe	-0.18724439
99	0xbe065545	-0.13118465
100	0xbed6246f	-0.41824672
101	0xbed74a2a	-0.4204877
102	0xbe72a186	-0.23694429
103	0xbe4cf2d0	-0.200145
104	0xbdb1d1b9	-0.086825795
105	0xbe209ee5	-0.15685613
106	0xbe867890	-0.26263857
107	0xbe9e991e	-0.30976194
108	0xbeae08c4	-0.33991063
109	0xbe33bf3c	-0.17553419
110	0xbe52b7e0	-0.20577955
111	0xbe6c1def	-0.23058294
112	0xbcbd191e	-0.023083266
113	0xbeae5c08	-0.3405459
114	0xbe7f3e89	-0.24926199
115	0xbe0d42ba	-0.13794985
116	0xbe544151	-0.20728041
117	0xbe95a99b	-0.2923096
118	0xbd88d4ea	-0.06681235
119	0xbe9efe84	-0.31053555
120	0xbe3ecd16	-0.18632922
121	0xbea72d4b	-0.32651743
122	0xbe514985	-0.20438202
123	0xbe6f87d7	-0.23391663
124	0xbe2fc54a	-0.17165104
125	0xbe129633	-0.14315109
126	0xbe44dbfb	-0.19224541
127	0xbe385973	-0.18002872
128	0xbe1a4210	-0.15064263
129	0xbde57f30	-0.112059
130	0xbe8c21f1	-0.27369645
131	0xbe0ac362	-0.13551095
132	0xbdc8e635	-0.098095335
133	0xbe815138	-0.25257277
134	0xbd5330c3	-0.051560175
135	0xbe5e2fa3	-0.2169786
136	0xbdc988da	-0.098405555
137	0xbdd4796b	-0.10374721
138	0xbeac123d	-0.33607665
139	0xbe6501f7	-0.22364031
140	0xbe28c02b	-0.16479556
141	0xbdce7f6f	-0.100829
142	0xbe8dbe88	-0.27684426
143	0xbe083ddc	-0.13304847
144	0xbebc0c99	-0.3672836
145	0xbe162682	-0.14663127
146	0xbe45fedd	-0.19335504
147	0xbec0c350	-0.37649012
148	0xbe665f4a	-0.22497287
149	0xbe7fe180	-0.24988365
150	0xbe806c70	-0.2508273
151	0xbe9d49a6	-0.30720252
152	0xbe24f5c2	-0.16109374
153	0xbe6ebbcb	-0.23313825
154	0xbe6c6614	-0.23085815
155	0xbe610183	-0.21973233
156	0xbe4072e3	-0.18793826
157	0xbe70ad2c	-0.2350356
158	0xbe4ca1c3	-0.19983582
159	0xbe70814b	-0.23486821
160	0xbe6c0714	-0.23049575
161	0xbe7831b9	-0.24237718
162	0xbe60b9f2	-0.21945933
163	0xbe475fc5	-0.19470127
164	0xbe771c50	-0.24131894
165	0xbe45f882	-0.1933308
166	0xbe9c496a	-0.3052476
167	0xbe1cb784	-0.1530438
168	0xbec11586	-0.37711734
169	0xbea2cf7e	-0.3179893
170	0xbe226b8a	-0.15861335
171	0xbe74cfec	-0.23907441
172	0xbe98885c	-0.29791534
173	0xbe9ee579	-0.3103445
174	0xbe8f25da	-0.27958566
175	0xbe93abe0	-0.28842068
176	0xbe5230b2	-0.20526388
177	0xbe703000	-0.2345581
178	0xbe8dc64d	-0.27690354
179	0xbe8c245b	-0.27371487
180	0xbe182bd8	-0.14860475
181	0xbdc8eeba	-0.098111585
182	0xbe8c084a	-0.27350074
183	0xbe537e14	-0.20653564
184	0xbe2dcca4	-0.16972595
185	0xbe8a22b8	-0.26979613
186	0xbe3badb5	-0.18327983
187	0xbe3db527	-0.18526135
188	0xbde97d88	-0.11400896
189	0xbe9cc9eb	-0.306228
190	0xbe3dcd33	-0.18535309
191	0xbe15a0b2	-0.14612082
192	0xbe7cb5bf	-0.24678706
193	0xbe976a64	-0.29573357
194	0xbecc1adb	-0.3986424
195	0xbe903753	-0.2816721
196	0xbe256f42	-0.16155723
197	0xbe8f0005	-0.27929702
198	0xbe0a93d1	-0.1353295
199	0xbe6521b5	-0.2237614
200	0xbe747061	-0.23870994
201	0xbdd5628b	-0.10419186
202	0xbe4b7dcb	-0.19872205
203	0xbe2fe207	-0.17176066
204	0xbe86788b	-0.26263842
205	0xbe2c8232	-0.1684654
206	0xbe1c99aa	-0.15292993
207	0xbe22a8aa	-0.15884653
208	0xbe9eac0f	-0.30990645
209	0xbeb5ce5e	-0.35509008
210	0xbea81fa0	-0.32836628
211	0xbe35bea9	-0.17748512
212	0xbe658c30	-0.22416759
213	0xbe020a6b	-0.12699287
214	0xbe33e10b	-0.17566316
215	0xbe2305eb	-0.15920226
216	0xbe222fdc	-0.1583857
217	0xbdca9b0a	-0.098928526
218	0xbe1dcb9c	-0.15409702
219	0xbe84b551	-0.25919583
220	0xbe164eae	-0.14678451
221	0xbe8e906d	-0.27844563
222	0xbe18b8e4	-0.1491428
223	0xbe48b345	-0.19599636
224	0xbe920461	-0.28518966
225	0xbe3b22c5	-0.18274982
226	0xbe9e2d63	-0.30894002
227	0xbe8817f0	-0.26580763
228	0xbe0b12d6	-0.13581404
229	0xbe22dfc2	-0.1590567
230	0xbe884df4	-0.26621974
231	0xbe74e0d3	-0.23913889
232	0xbde1e25b	-0.11029502
233	0xbe083b4a	-0.13303867
234	0xbe3f4a1a	-0.18680611
235	0xbdd1718d	-0.10226736
236	0xbe5ad823	-0.21371512
237	0xbdc5424a	-0.09631784
238	0xbe1065ce	-0.14101335
239	0xbe2d3a0c	-0.16916674
240	0xbd2e2f0e	-0.042525344
241	0xbe8d8660	-0.27641582
242	0xbe76eefc	-0.24114603
243	0xbe35b53b	-0.17744915
244	0xbe358e36	-0.1773003
245	0xbe31035c	-0.17286438
246	0xbe31684f	-0.17324947
247	0xbe15dcfa	-0.14635077
248	0xbe480c91	-0.19536044
249	0xbe1ca194	-0.15296012
250	0xbe93cafc	-0.28865802
251	0xbe530baa	-0.20609918
252	0xbe8ad30d	-0.27114144
253	0xbe6247ab	-0.22097652
254	0xbdc10f97	-0.09426802
255	0xbe36768a	-0.17818657
